Assets/AIModel/binary_alif.onnx (onnx, 95589 bytes, 7 tensors)

features.0.weight f4 [16, 1, 3, 3]
000000 e9 ae 8f be 25 0c 61 3e 90 f0 fc 3d 51 58 37 be
       -0.28063133 0.21977289 0.12350571 -0.17904784
000010 1c c4 ab 3d 6e 97 84 3c be cf cf bc 6e 9a 94 be
       0.08387014 0.016185489 -0.025367614 -0.2902407
000020 04 a8 58 be c5 7f 39 3e bd 7d 0a 3e 69 02 0a 3e
       -0.21157843 0.18115146 0.13524528 0.13477482
000030 90 84 8c be 79 7b 4e bd f8 b4 02 3e d5 55 14 3e
       -0.27444887 -0.05041072 0.12764347 0.14485867
000040 cc e4 d6 bd 7c f8 ac 3e bf d0 2d 3e 9d 1c 74 3e
       -0.10492858 0.3378333 0.16974162 0.2383904
000050 23 4a 93 be d1 7f a8 bd 3e 06 a2 be c3 92 b1 be
       -0.287675 -0.08227504 -0.31645387 -0.34682283
000060 41 a1 5e 3e 0c 3f 37 be 2d 96 66 be 87 03 94 be
       0.21741201 -0.17895144 -0.22518225 -0.2890894
000070 aa 2c a4 3d a9 13 73 be 4b aa 56 3e e4 a2 42 be
       0.080163315 -0.23737969 0.20963399 -0.1900745
000080 e7 de 12 3e 1d 39 d0 3d be 54 3c 3e 68 4f 81 be
       0.14342843 0.101671435 0.18391702 -0.25255895
000090 d6 8b d4 3d ab 44 54 be 38 20 ca bd 76 9c a8 be
       0.10378234 -0.2072932 -0.098694265 -0.3293187
0000a0 1c 10 15 3e 05 be 4c bd 7f 6b 71 be 7a e1 19 be
       0.14556926 -0.049985904 -0.23576163 -0.15027419
0000b0 f0 80 c5 bd c8 b9 8a be 4a f0 cc 3d 9a 3c c3 bd
       -0.096437335 -0.27094865 0.10006769 -0.09533043
0000c0 29 2f a3 3e f2 46 25 bd d1 06 b5 bd 5f a1 27 bc
       0.31871918 -0.04035086 -0.08839191 -0.010231345
0000d0 f8 42 75 3e 19 57 97 3d 8b 8f 15 be 2b ed 93 bd
       0.23951328 0.073896594 -0.14605539 -0.072229706
0000e0 73 a9 e8 3d 43 a6 48 3e f0 78 7a 3d bc 66 c7 bd
       0.11360445 0.19594674 0.06115049 -0.09736392
0000f0 fc ea 2d bd 3e f2 f9 3d b0 e7 a5 3e 5c 91 eb bd
       -0.042460427 0.12204407 0.32403326 -0.115023345
000100 8c 81 4e 3e a4 e2 91 3e 40 df d3 3d 7b cd 15 be
       0.20166606 0.28493226 0.10345316 -0.14629166
000110 7d 9d a3 3e 8a e9 75 3e b5 4c 01 3d c1 66 82 be
       0.31956092 0.2401487 0.031567294 -0.2546902
000120 34 7f 13 3d fb 83 58 3d 3b a2 7c be bc b9 af bd
       0.036009982 0.05286024 -0.24671261 -0.08580348
000130 3f 7b 94 be 9f 33 62 be f3 3b 1a be 51 f3 21 3e
       -0.2900028 -0.22090004 -0.15061931 0.15815474
000140 06 5b 46 3e 5a af 74 3e ad a4 82 3d e3 a4 54 be
       0.1937066 0.23895016 0.06379066 -0.20766024
000150 25 7e 58 be bc 31 be bd 7c f1 1c be 2e f2 a8 3e
       -0.2114187 -0.0928683 -0.15326494 0.32997268
000160 39 ff ac 3e 2d c0 a5 3d e0 33 0f 3e d4 96 96 3e
       0.3378847 0.08093295 0.13984632 0.29411948
000170 40 b3 08 3e 3e c2 9e 3e 28 1e f8 3d 4d ae 63 be
       0.13349628 0.3100757 0.12115127 -0.22234459
000180 a4 ee 57 3d 4f 9b 9f 3e bc d3 18 bd 24 01 0f be
       0.05271782 0.3117318 -0.0373113 -0.13965279
000190 65 c5 dd bd 0f 74 f4 3d 93 ef 4e be a6 db e2 bc
       -0.10828666 0.11936199 -0.20208578 -0.027692627
0001a0 27 9d 46 3e 06 49 2f 3d 49 0f 89 3e f5 f3 1d be
       0.19395886 0.04279425 0.26769474 -0.15425093
0001b0 95 38 3d be 60 e8 8d be 0b 15 69 3e 07 3d 50 be
       -0.18478616 -0.2771635 0.22761934 -0.2033578
0001c0 bd 34 12 be 53 8c 2c be 71 55 92 3e 73 6d 1e be
       -0.1427793 -0.16850404 0.28580812 -0.15471439
0001d0 dc 33 31 bd 09 e2 0f 3e af 1c 71 be 55 ce 56 3e
       -0.043262348 0.1405107 -0.23546098 0.20977147
0001e0 3c 07 9d 3d 81 f8 75 be ac 07 d1 3c 1b 86 2c 3e
       0.076673955 -0.24020578 0.025516354 0.16848032
0001f0 7f 0c 2b be ba f9 7f bd 2c f0 cd bb 9c 4e 7b bd
       -0.16703986 -0.062494017 -0.0062847342 -0.061354265
000200 9a 4b d6 bc 78 0c 8d be b5 6f 77 bd ca 94 a8 3e
       -0.026159097 -0.27548575 -0.060409267 0.32926017
000210 7e f2 ac 3e 3b 26 a5 be f7 9f 30 bd 16 4e 93 be
       0.33778757 -0.3225573 -0.043121304 -0.28770512
000220 d7 98 8a be ef 6b 26 be 6b 48 e8 bd 1a f8 95 be
       -0.27069733 -0.16252111 -0.11341938 -0.2929085
000230 6c 2d 09 3e 12 86 8a 3e 68 de bd 3d 1c 6a 17 bc
       0.13396233 0.27055413 0.09270936 -0.009241607

features.0.bias f4 [16]
000000 39 5e 55 3e 18 79 00 3e 8e 15 3b 3e cd bb 37 3e
       0.20836724 0.12546194 0.18269941 0.17942734
000010 52 9b e0 3d b6 37 86 3d f0 20 8c be fe ec 9b be
       0.10967125 0.06553595 -0.2736888 -0.30454248
000020 72 63 33 3d 4d 16 8c 3e 71 a9 5c be 34 1a 86 be
       0.04379601 0.27360764 -0.21549012 -0.26191866
000030 78 59 6f bb 44 ec 41 3d d7 11 83 be 46 a6 b6 bd
       -0.0036521833 0.04734446 -0.25599548 -0.08918433

features.3.weight f4 [32, 16, 3, 3]
000000 9c 06 80 bc 13 40 9b 3d 74 99 c9 3c 42 9c 9b bc
       -0.015628152 0.075805806 0.024609305 -0.018995408
000010 34 36 b0 3d c3 16 8f bd 88 1c d1 3b 7a fd 65 bd
       0.086040884 -0.06986763 0.006381575 -0.056149937
000020 bc c7 42 bd fa 67 b1 3d 70 dc 8a 3d a4 6c 4d 3d
       -0.047553763 0.0866241 0.06780326 0.050152436
000030 b2 33 c3 3c 99 84 92 3d 28 85 a7 3d 00 4b 74 bd
       0.023828361 0.07154197 0.081796944 -0.059641838
000040 86 ad 87 bd 06 a6 83 3c 2d 22 56 3d 55 76 0e bb
       -0.06624894 0.016070377 0.052278686 -0.0021738012
000050 c8 f1 9b 3d 33 0c b7 3d ae fd 0b bd 02 f0 13 bd
       0.076144755 0.08937874 -0.034177475 -0.03611756
000060 dd da 77 3c 44 f6 38 3d d0 bc 2b bb ec 0e 78 3d
       0.015127865 0.045156732 -0.002620507 0.060561106
000070 da 45 f7 3c c4 44 9d bc f7 90 ca 3c 7d ac 91 bc
       0.030184675 -0.019197829 0.024727328 -0.017782444
000080 3b 5b 13 bd 27 51 82 3c 8c 19 dd bb 90 a2 a3 3d
       -0.035975676 0.015907837 -0.00674743 0.07989991
000090 bd 66 33 bd f7 68 56 3d e1 00 82 3d 51 47 73 3c
       -0.04379915 0.052346196 0.06347824 0.014848546
0000a0 63 68 87 3d 9b 04 39 bd 6a 23 34 bd 39 c1 87 bc
       0.06611707 -0.045170408 -0.043979086 -0.016571628
0000b0 ea 85 1d bd 61 e9 a4 3d 00 20 65 3c 98 da 2c 3d
       -0.03845779 0.08052326 0.01398468 0.042200655
0000c0 90 62 94 bd ee da d1 bc eb 18 8f 3d 93 7c e0 3c
       -0.07245362 -0.02561709 0.069871746 0.027403152
0000d0 dd 59 53 bd ac 1a 96 bd 19 30 b9 bc 1f 1d 8d 3c
       -0.051599372 -0.07329306 -0.022605943 0.0172258
0000e0 b7 99 7a bd 9a 08 32 bd 39 b3 6a bb fc 5c 19 3d
       -0.06118175 -0.043465234 -0.0035812391 0.037442192
0000f0 ab 59 79 bd 9c 5f 8c 3c be 73 9c bd bc 09 a3 39
       -0.06087653 0.017135434 -0.076392636 0.00031097035
000100 a7 0a 8e 3c 27 87 12 3d 44 f4 26 3d c7 30 e3 bc
       0.017339064 0.035773423 0.040760294 -0.02773322
000110 8e 94 41 bd 02 d1 95 3c 9a a8 3d bb 5e 12 7c 3c
       -0.047260813 0.01828814 -0.0028939606 0.015385238
000120 7c 29 57 3d c1 39 90 bd 77 11 8b 3d b9 53 96 bd
       0.052529797 -0.07042266 0.067904405 -0.073401876
000130 c7 f8 02 3d aa a6 8c bc ea 97 82 bb d4 f2 99 bd
       0.031975534 -0.017169315 -0.0039853947 -0.07517019
000140 c9 50 95 3d ac d4 65 bd 79 16 1e 3d af 16 4e bd
       0.07290799 -0.056111023 0.03859565 -0.0503146
000150 80 08 88 bd bc 97 1c bd 8b c1 66 bd 32 98 03 bd
       -0.06642246 -0.038230643 -0.05633692 -0.032127567
000160 86 70 08 bb 5c 0a ab 3c d9 ed b1 3d dc d7 ae 3c
       -0.0020819022 0.020878963 0.08687944 0.021343164
000170 31 99 82 3d 2f 82 70 bc 0b a5 04 bd e1 41 7c bd
       0.06376875 -0.014679476 -0.03238396 -0.061586265
000180 97 65 54 bd 79 47 e3 3a aa df 33 3d 0b 85 66 3d
       -0.051854696 0.0017340026 0.043914475 0.056279223
000190 bd ef 74 3d 45 cb b4 3d 56 8d 14 3d c3 e0 d3 3c
       0.059798945 0.08827833 0.0362676 0.02586401
0001a0 9f 1b c9 bc 3c 3c 00 3a 61 0d 8d 3d ae 1c 93 bd
       -0.024549304 0.0004891788 0.068873174 -0.071832046
0001b0 fb 73 21 bc af 46 bf 3d d3 f2 9f 3d b0 d6 87 3d
       -0.009854312 0.09339654 0.07809987 0.06632745
0001c0 18 2f 6e 3d b7 fa 65 bd b2 e7 bb 3c 32 63 c9 3c
       0.05815038 -0.056147303 0.02293763 0.024583433
0001d0 8a 62 05 bc d2 d9 87 3d 99 19 44 3d 58 78 a2 3c
       -0.008141169 0.06633343 0.047875974 0.019832775
0001e0 7a c7 09 bc cf 6c 34 3d 66 c5 0c bd 1e ab 00 bb
       -0.008409375 0.04404908 -0.03436794 -0.0019633244
0001f0 19 ad c0 bc 1c f4 27 bd 02 d8 2b 3d f5 22 78 3d
       -0.02352004 -0.041004285 0.041954048 0.060580213
000200 7f ef 18 3d d9 15 87 bd f2 65 86 bb 14 ba 35 3d
       0.037337776 -0.06595964 -0.0041015083 0.04436691
000210 90 5e 22 3d c5 b3 ed 3c 37 a4 93 bd 48 e0 9d bd
       0.039640963 0.029016385 -0.07209056 -0.07708794
000220 42 96 aa 3d 6d d6 5d 3d 84 84 a0 bd a5 40 ce 3c
       0.08329441 0.05415957 -0.07837775 0.02517731
000230 71 b3 2f bd 6f de 0a bd 88 b7 9d 3d 80 c7 7f bc
       -0.042895738 -0.033903535 0.077010214 -0.015611529
000240 0a 19 45 3d 26 a1 2a 3d 5a 91 21 3d 98 f9 17 39
       0.048119582 0.04165759 0.03944526 0.00014493463
000250 41 9e 11 bd af 50 0e 3d f1 59 35 3d 80 07 27 bd
       -0.035551313 0.034744915 0.044275228 -0.040778637
000260 96 86 5f bd 34 4a 6c 3d 52 54 f6 bc 44 97 45 3d
       -0.05457171 0.057687953 -0.030069504 0.04823996
000270 e6 8e 6e bd ba e9 4c bd 36 70 c6 bc a2 62 92 3b
       -0.058241747 -0.050027587 -0.024223428 0.0044673244
000280 c2 59 4e bd ca d7 97 bc 5a 92 87 bd 55 06 da bd
       -0.05037857 -0.018535513 -0.06619711 -0.10645739
000290 89 08 cc bc 64 63 00 3d 90 29 11 3d f4 48 5e bd
       -0.024906414 0.031344786 0.035440028 -0.054268792
0002a0 ec e7 94 bd 91 d6 75 bd cb 5b 8c bd a1 bb 88 3d
       -0.07270798 -0.06001908 -0.068534456 0.066764124
0002b0 fe b3 48 bd d8 82 02 bd 88 8e 7f 3d b1 c5 c9 bd
       -0.04899978 -0.031863064 0.062391788 -0.0985216
0002c0 97 97 30 3d 05 ee 0d 3d 8d 9c c7 bc 95 c6 6a bd
       0.043113317 0.03465082 -0.024366641 -0.05731829
0002d0 83 35 e4 bc 98 dd 66 39 8b f5 b2 bd 90 7b 40 3d
       -0.027857548 0.0002201706 -0.0873824 0.04699284
0002e0 d4 a5 11 bc 17 7b 54 bd a6 f4 af 3a 28 05 2e bd
       -0.008889634 -0.0518752 0.0013424351 -0.042485386
0002f0 6b de 31 bc 67 d8 df bc 44 2e 6f bd 6d 57 8d 3d
       -0.010856251 -0.027324868 -0.05839373 0.06901441
000300 8c 6f f3 3b 9d f8 2e bc 07 5c 5a bd 19 a5 a7 3b
       0.007429069 -0.010679391 -0.05331042 0.0051161167
000310 a5 03 2d 3d ef 17 85 3d a9 16 91 bd 9e b9 12 bd
       0.042239804 0.064987056 -0.070844 -0.03582155
000320 23 d7 bc 3d 1c 75 e5 3b d6 75 1a 3c 28 ab 88 bd
       0.092207216 0.007002486 0.009427508 -0.066732705
000330 9f 92 00 bd 86 ea ac bb b5 25 32 bd 71 bf 98 3d
       -0.03138983 -0.005276981 -0.04349299 0.074583896
000340 50 50 3b 3d 1c 5e c5 3d ea 03 c0 3c 92 db 6a 3d
       0.04573089 0.096370906 0.023439366 0.057338305
000350 6f 3d 3c 3d e8 e2 ba 3b 0e de 6a bd b2 d5 0a bb
       0.045957025 0.005703319 -0.057340674 -0.0021184501
000360 c2 e8 8d 3d bc a3 86 bd 4f 97 9f bd 40 8a 7c 3d
       0.06929161 -0.065741986 -0.07792532 0.061655283
000370 fc 32 89 3d 52 e1 6c bd af 96 1e 3d 14 80 19 bd
       0.066991776 -0.05783207 0.03871792 -0.03747566
000380 c9 09 53 3c ee 99 8d bd 25 4a b8 bd 7e c6 ad bc
       0.012880751 -0.069141254 -0.08998517 -0.021212813
000390 df 5f 9e 3d 5e f4 93 3d 20 17 5c 3d 07 15 22 bd
       0.0773313 0.07224344 0.05373299 -0.039570834
0003a0 31 c7 97 3d df 5e 86 3d 20 28 e2 bc e8 50 6d 3d
       0.074110396 0.06561064 -0.027607024 0.057938486
0003b0 c2 6d 00 3c 99 d1 a3 3d 24 15 9d bd 3e 16 e4 bc
       0.007838668 0.07998962 -0.07670048 -0.027842637
0003c0 8f 25 b5 3c 8f 1b 52 3c d3 b7 50 3c d1 bb 39 3c
       0.022112636 0.012823953 0.01273914 0.011336283
0003d0 8f e8 8f 3d 61 28 2d bc d0 c7 c2 3d ab b9 67 bd
       0.07026779 -0.010568709 0.095107675 -0.05657355
0003e0 8a 03 0c bc 8c 91 c1 3d 9c aa 3b 3c 39 82 a3 bc
       -0.008545766 0.09451589 0.011454251 -0.019959556
0003f0 8b 62 dc 3c 1a e9 85 3c e9 09 2e 3c 59 e0 ce 3d
       0.026902458 0.016346503 0.01062248 0.10101385

features.3.bias f4 [32]
000000 b1 57 5e bd f1 13 7d 3d dd 9c a8 bd e0 32 27 3d
       -0.054282848 0.061786596 -0.08233044 0.040820003
000010 3d ae 83 bd b4 f3 9d bd 31 18 91 3d 17 cb 1d bd
       -0.06429718 -0.07712498 0.07084692 -0.03852376
000020 6b dd 68 3d 66 4b 70 3d b9 34 87 bc a9 97 f6 bc
       0.056851786 0.058665656 -0.016504632 -0.030101614
000030 c8 66 41 bd ba 0e f7 3c ae f6 56 bc bd 88 be bb
       -0.04721716 0.03015839 -0.013120336 -0.0058146403
000040 5a e8 2d 3c 2c 26 a6 3d 93 c7 42 bd 25 a6 71 3d
       0.010614479 0.081127495 -0.04755361 0.05899634
000050 2d 30 b8 3d 02 fb 91 bd 0e 96 fc bc 70 68 81 bd
       0.08993564 -0.07127954 -0.03083327 -0.06318748
000060 43 9a 82 3b b6 ff 7d 3d 6e fb 1b 3b 00 f8 89 3d
       0.0039856746 0.062011443 0.0023800987 0.06736755
000070 f1 7b 43 bd 71 83 9f 3d b3 68 e6 3c 5b bb 97 bd
       -0.04772562 0.07788742 0.028126096 -0.07408782

features.6.weight f4 [64, 32, 3, 3]
000000 3e 65 50 3d 6b 4e 47 bc 96 4e c2 3b 4b 3c 8a bc
       0.050877802 -0.012164692 0.0059297783 -0.016874453
000010 d0 9c 87 3d d9 1e f7 bc 02 8e 88 3d 03 1b e3 3c
       0.066217065 -0.030166076 0.06667711 0.027722841
000020 f4 dc a2 3d 1e 54 04 3d f7 7c 14 3d 14 cc f7 3b
       0.079523 0.032306783 0.03625199 0.00756217
000030 40 93 62 3d 59 05 1b 3d b5 b7 6a 3b ea 20 ed bc
       0.05531621 0.037846897 0.0035815064 -0.028946359
000040 65 c2 05 3d 39 1b d9 bc 84 1c 8d 3b b7 30 3d 3d
       0.032656092 -0.026502239 0.004306378 0.046189036
000050 51 60 0d 3c 53 a3 7e 3d 47 23 04 3d 13 5a ba bc
       0.008628921 0.062167477 0.032260206 -0.022748029
000060 8a 0f 08 bd 2a e7 8a 3b 5c d6 48 3d a3 7b ca bc
       -0.033217944 0.0042389827 0.049032554 -0.024717158
000070 66 51 f5 3c 90 37 95 3d 78 8c 07 3d 8f 9c 40 bb
       0.02994604 0.07285988 0.033092946 -0.0029390191
000080 eb 4a 8f 3d 53 c4 04 bc eb 36 82 3d f2 38 81 3c
       0.06996711 -0.008103448 0.06358131 0.015774224
000090 08 15 04 bd 62 30 84 bb 03 a4 96 bd f2 b8 dd bc
       -0.03224662 -0.004034088 -0.073555015 -0.027065728
0000a0 6d 79 5d bd 51 fa e7 bb 16 f5 f7 bb c9 42 14 bd
       -0.05407088 -0.0070794006 -0.0075670583 -0.036196504
0000b0 99 5d dd bc e1 ce 0f 3d 85 d0 83 3d 2c 08 98 3b
       -0.02702217 0.035109404 0.06436256 0.004639646
0000c0 8f bb 3b 3d 39 2f 20 3d ff a1 9a bc d1 87 05 bd
       0.045833167 0.039107535 -0.018876074 -0.032600228
0000d0 2e 32 b2 3c 88 01 67 3d 28 04 4b bb e9 5b 1c 3d
       0.021752443 0.056397945 -0.003097782 0.03817359
0000e0 2e da 18 3d 98 98 16 3d 8c 08 87 bb 69 fa 7a 3d
       0.037317447 0.03676662 -0.004120892 0.061273966
0000f0 fb 09 fc 3c 07 44 e5 3c 98 02 d0 bc 2a 8e 7e bc
       0.030766478 0.02798654 -0.025391862 -0.015536824
000100 0e af 71 3c 27 07 7b 3d d2 bd 44 3d 90 9a 50 3c
       0.014751209 0.061286118 0.04803259 0.012732163
000110 5d 03 b2 bc 5e 26 e8 3c d4 ff 7e 3d 3d 71 50 3d
       -0.02173012 0.028338607 0.062255695 0.050889242
000120 4d 44 aa 3c e1 02 28 bd 8a 42 4f bc 40 6e 8e bd
       0.020784521 -0.04101837 -0.0126501415 -0.06954622
000130 6a 3a 3d bd 8c 07 c4 bb b4 bc 4a bd 5e fa da bc
       -0.046198286 -0.005982345 -0.049496368 -0.026730713
000140 a6 90 a4 bc 1a a9 75 bc 46 bd 19 3d c3 05 5d 3d
       -0.020088505 -0.01499393 0.03753402 0.053960573
000150 42 dd b3 bc 7a e5 33 bd c3 62 2c bd 24 41 bd bc
       -0.02195609 -0.043920018 -0.042086374 -0.02310235
000160 0d df bb bc 7c 64 2f 3d 2b 34 87 bd 4e a5 c8 3b
       -0.022933507 0.04282044 -0.06601747 0.0061232215
000170 8d c0 60 bd f3 97 91 3c 9e cd e5 bc 22 77 d6 bc
       -0.05487113 0.01777265 -0.028052147 -0.026179854
000180 98 7d 6c bd 39 3b 74 3c 58 29 e9 3c b6 cc aa 3d
       -0.057736963 0.014906698 0.028462097 0.08339827
000190 f6 eb d1 bc 47 cb a3 3d 5a b0 16 bb 41 26 98 3d
       -0.02562521 0.079977565 -0.0022993297 0.07429171
0001a0 ba e9 61 3d 9e 37 92 3d 2b df 7a 3d 60 1c 4e 3d
       0.05515454 0.071395144 0.061247986 0.05032003
0001b0 d6 e7 16 3d 85 f4 bf 3c 55 72 70 3d 52 b3 93 bb
       0.03684219 0.023432026 0.058702786 -0.0045074606
0001c0 4c 12 ef 3c f0 cf e3 3c 5f fd d3 bc 62 54 32 3d
       0.02918353 0.027809113 -0.025877653 0.043537505
0001d0 4b 37 14 bb 8b 7e 0d bd 16 6c 51 bb b7 00 4c bc
       -0.0022615965 -0.03454451 -0.0031955293 -0.012451342
0001e0 09 d0 32 3d 1a fc a2 3c b2 96 72 3c 6e 46 7f 3d
       0.04365543 0.019895602 0.014806436 0.062323026
0001f0 c6 31 86 3d 62 61 ac 3b c1 bc 4a 3d eb bc 2b bd
       0.06552462 0.0052606324 0.049496416 -0.041928213
000200 6b 93 9f 3c 53 96 ef bc 95 03 20 3d f5 ec 92 bc
       0.019479474 -0.029246485 0.039065916 -0.017935256
000210 74 b2 cb bc 07 5f 1c bd 5a e1 03 3c 11 92 2a bc
       -0.024865367 -0.038176563 0.0080493335 -0.0104108015
000220 42 65 e2 3c e8 3d 8e bd 29 9b 17 bd 0a 1a 8b bd
       0.027636174 -0.069454014 -0.037013207 -0.06792076
000230 cd 44 d7 bc 61 1c cd 3b fe 9c 10 bd de f4 81 3b
       -0.026277924 0.0062594865 -0.03530597 0.003965958
000240 2c d6 59 3c ec 13 fb 3c 53 ae 10 3d bc 54 97 b9
       0.013295691 0.030649148 0.0353225 -0.00028864096
000250 da 36 6d bd fa e9 0a bc 06 6f 00 3d 93 1f 36 bd
       -0.05791364 -0.008478636 0.03135588 -0.044463705
000260 e4 72 21 b9 88 18 f9 bc b3 f4 3b 3d 8f d0 39 bd
       -0.00015396957 -0.030407205 0.04588766 -0.045364913
000270 df 9e 57 bd 0e 0a 61 3c aa 39 ec bc 7a 31 2b bd
       -0.052641746 0.013735307 -0.02883609 -0.04179523
000280 4b 56 40 3d ca 54 25 bd 41 15 1c 3d 39 ea 21 3d
       0.046957295 -0.040364064 0.038106207 0.039530013
000290 29 20 0b 3d e5 a4 2b 3c 9b 20 96 3d 14 06 f7 bb
       0.033966217 0.010476326 0.07330438 -0.0075385664
0002a0 35 6e 21 bc fa 5e 15 3d 85 fd 9e 3d 50 da 32 bd
       -0.009852936 0.03646753 0.07763199 -0.04366523
0002b0 f0 d0 0b bd 8a 34 14 bd e0 5f 44 b9 64 14 a4 bb
       -0.034134805 -0.036182918 -0.00018727733 -0.0050073136
0002c0 76 ec 26 3c e2 e2 47 3c 66 c0 e2 bc cd 6c 01 bd
       0.010188213 0.012200089 -0.027679633 -0.0315979
0002d0 b7 91 47 bd 01 0f 7f bd 56 17 18 3b 6a eb 89 bd
       -0.04872295 -0.06227017 0.0023207269 -0.06734355
0002e0 14 9c 7c bd 7a 6d 79 bd 56 b6 e8 3c 72 a2 6a bd
       -0.061672285 -0.06089542 0.028407257 -0.057283826
0002f0 aa ee 86 bd ff 64 a0 3c 81 4a 80 3d e5 b8 46 3d
       -0.0658849 0.019579409 0.062642105 0.048516173
000300 d9 92 a8 3d 6a 99 a1 3d 40 29 ea bc 3e 7a 49 3b
       0.08231134 0.078905895 -0.028584123 0.0030743028
000310 ee 53 a9 3d 3c 74 8d 3c af 8e 4b 3d 07 2d 09 bc
       0.082679614 0.017267339 0.04969662 -0.008372552
000320 7e 7b 4f bc ab 24 51 bd c2 aa 25 3b b8 dd 64 3d
       -0.01266372 -0.05106036 0.0025278782 0.05587551
000330 44 b7 b4 3b ba f1 05 3d da d8 16 bd d0 3b 88 bc
       0.005515011 0.03270123 -0.0368279 -0.016630083
000340 94 c6 8d 3d 89 11 09 3d d9 3b e8 3b 0f 9e 51 3d
       0.069226414 0.03346399 0.0070872125 0.051176127
000350 56 ff 55 3d 64 b5 1b 3d b4 a9 9f 3d 23 e2 1c 3d
       0.05224546 0.038014784 0.0779604 0.0383016
000360 28 15 bf bc ba 85 cd 3c 11 bc e3 3c 1d 44 02 3d
       -0.023325518 0.02508818 0.027799638 0.03180324
000370 47 79 de bc 8d d3 ac 3c f6 59 d8 bc 3d 38 75 3c
       -0.027157439 0.021096969 -0.026410084 0.0149670215
000380 3a 6a 9d bb 5a 97 2f 3d 69 40 70 3d c5 00 89 3d
       -0.004803923 0.04286895 0.058655176 0.066896
000390 23 1e d1 3c 72 34 6d 3d 87 89 31 3c 19 41 91 3d
       0.025527066 0.057911344 0.010836012 0.070924945
0003a0 03 a1 ce 3b 43 fd 85 3b 04 fe ab 3c ed f4 9a bd
       0.006305815 0.004089029 0.020995148 -0.07566247
0003b0 bb 9e 6e bd cf 61 39 bd 48 d5 c7 3c 7f 3d 4e 3c
       -0.058256846 -0.045259293 0.024393693 0.012587904
0003c0 1d 35 88 bc ec ee 73 bd 62 4d ac 3c 79 ce c9 bb
       -0.016626889 -0.059554026 0.021032993 -0.0061586467
0003d0 db c4 4c 3d 2b 91 72 3d 7c 68 56 3b be 05 d6 bc
       0.049992424 0.059220474 0.0032716086 -0.026125785
0003e0 67 5a 4c bc 48 34 26 ba 8b ba 77 bc 46 03 65 bb
       -0.0124727255 -0.0006340188 -0.015120159 -0.0034944578
0003f0 07 a6 a7 3c c2 79 49 3c 09 c6 15 3d af 30 8c 3d
       0.02046491 0.012297096 0.036565814 0.06845223

features.6.bias f4 [64]
000000 94 3e 8c bb 5a 0f 96 bc 7b 31 75 3d 48 fb 1f bb
       -0.004279921 -0.018317867 0.05986164 -0.002441125
000010 f4 15 16 3c 9e cc 86 bd 50 a0 eb bc 03 bd ed bc
       0.0091605075 -0.065819964 -0.028762966 -0.029020792
000020 09 b0 62 bd 08 5b 59 3b 2f 65 ef 3c 26 c5 a1 3c
       -0.05534366 0.003316583 0.029223053 0.019747328
000030 3c 20 85 bd 1e 22 04 bd f2 27 28 bd e2 00 78 3d
       -0.06500289 -0.0322591 -0.04105372 0.060547717
000040 f7 dd 20 bc f4 e9 5f bc 7e 43 ac 39 3a df c5 bc
       -0.009818546 -0.013666619 0.00032856682 -0.024154294
000050 83 6d 8e 3c ab 05 9f 3c e2 e0 8c 3c 5d b4 5b bc
       0.017386204 0.019411882 0.017197076 -0.013409701
000060 4a d9 0e 3d 3d f0 16 bd c8 4d 1d 3d 95 5f 8e 3b
       0.03487519 -0.036850203 0.038404256 0.0043448904
000070 78 a3 93 3c 17 20 91 3d e3 46 e1 ba 48 c4 d2 3b
       0.018022284 0.07086199 -0.0017187264 0.00643209
000080 0b 2a 00 bd 76 ce 52 bd 2a 19 22 3d 14 fb 19 3d
       -0.031290095 -0.051466428 0.03957478 0.037592962
000090 3b b4 4b bd d8 dc f2 3b 77 35 4b bd 26 7d 94 bb
       -0.049732428 0.0074115805 -0.049611535 -0.0045315204
0000a0 2b 32 10 3d 1e 05 19 3d fe 19 2f bc b2 39 17 bd
       0.035204094 0.037358396 -0.010687349 -0.036920257
0000b0 1f b6 a1 3d ba a3 08 3c 60 a0 91 bb 8c a0 d6 bb
       0.07896065 0.008339817 -0.004444167 -0.0065499004
0000c0 64 1d db bc f7 59 59 bd bb 61 7d 3d 4a ef 26 3b
       -0.026747413 -0.053064313 0.06186078 0.0025472217
0000d0 d5 98 64 3d d9 3a 19 bd fe 5f 50 bd 5a d8 e1 bb
       0.055809814 -0.037409637 -0.050872795 -0.006892246
0000e0 a2 94 dc bc 33 53 a3 3c bd 45 1a bd 5f 31 0d 3d
       -0.026926342 0.019937133 -0.037664164 0.034470912
0000f0 ef d3 01 bd 22 e7 c2 bc 38 7b ef b9 9c a8 80 bd
       -0.031696256 -0.023791853 -0.00045677437 -0.0628216

fc.weight f4 [1, 64]
000000 5b b9 7a bd 00 05 df bd 40 da ad 3d e5 9e 06 3e
       -0.061211925 -0.108896255 0.084888935 0.13146551
000010 54 3e 9a 3d 2f 0a 5e bd 46 1f 94 bd a3 94 e3 3d
       0.075314194 -0.05420893 -0.072325274 0.111123346
000020 9a 50 74 bd 04 63 64 bc c2 16 0c 3e 81 48 00 3e
       -0.05964718 -0.013939623 0.13680556 0.12527658
000030 7b 81 c2 3d 68 93 97 bd f5 9b d1 bd f5 ae 40 3d
       0.09497353 -0.074011624 -0.102348246 0.047041852
000040 89 21 9d bd 21 46 e9 bd f0 2d 74 bd 3c 0e 18 be
       -0.07672412 -0.11390329 -0.059614122 -0.1484918
000050 29 81 0d 3e d2 11 03 be 34 d8 bc bd 95 ba 11 be
       0.13818802 -0.12799767 -0.09220925 -0.14231332
000060 9e 79 cc bd 05 68 a7 bd d6 4b b5 bd b7 22 4f bd
       -0.09984134 -0.08174137 -0.08852355 -0.050570216
000070 a2 e3 90 bd f1 f1 f0 3d 8c fa 47 bd 68 55 30 3d
       -0.070746675 0.11764897 -0.048822924 0.0430502
000080 2e 34 d7 bc c2 38 c0 3d d9 89 03 be a2 8c 75 3d
       -0.026269998 0.09385826 -0.12845553 0.05994857
000090 49 bc 89 3c 60 07 be bd 7c 8c c7 3d 3c b8 8a 3d
       0.016813414 -0.092787504 0.09743592 0.06773421
0000a0 8d ce c4 bd 92 df db 3c b9 c6 a2 3d f9 8b b5 3d
       -0.09609709 0.026840005 0.079480596 0.08864588
0000b0 ef fe ad 3d 65 dd 66 bd 0c 71 ea 3d bd eb aa bd
       0.0849589 -0.056363482 0.11447343 -0.08345745
0000c0 7a f5 f1 bc a3 5b b2 3c 51 50 06 3e c7 50 8d 3c
       -0.029535998 0.021772211 0.13116576 0.017250432
0000d0 89 6b 0d 3e 84 ca a7 3d c6 73 bf 3d 1f 59 77 bd
       0.13810553 0.08192924 0.09348254 -0.060387727
0000e0 ff eb da 3d f5 57 7d bd ba e6 e2 bd 24 a7 00 3e
       0.10689544 -0.06185146 -0.11079164 0.12563759
0000f0 79 4c 02 bd 98 bb 4f bd 4a fa 01 be f8 3b da 3d
       -0.03181121 -0.050716013 -0.12693134 0.106559694
